best_weather_model.pth (torch, 43190 bytes, 5 tensors)

fc1.weight f4 [128, 13]
0	0xbee3146a	-0.44351512
1	0x3dd97e7c	0.10619828
2	0x3b4a2a0d	0.0030847818
3	0xb9fe54b5	-0.00048509767
4	0xba848af8	-0.0010112217
5	0xbb6af200	-0.003584981
6	0x3b035b13	0.0020043298
7	0x3b0667b6	0.0020508594
8	0x3c350bbe	0.011050163
9	0x3e0641e5	0.13111074
10	0xbf11b9fc	-0.56924415
11	0x3e09d93f	0.13461779
12	0xbd6de681	-0.058081154
13	0xbe9566d5	-0.29180017
14	0x3cccb50a	0.02498867
15	0xbbafeebc	-0.0053690355
16	0xbc6ce37a	-0.0144585315
17	0x3b388540	0.0028155595
18	0xb9d858ae	-0.00041264802
19	0xbc2ea33b	-0.010659034
20	0xbc3f7239	-0.011684948
21	0x3e1124de	0.1417422
22	0x3efbfb86	0.49215335
23	0x3e4d6b63	0.20060496
24	0xbda6bd3b	-0.081415616
25	0x3eed967b	0.4640387
26	0x3dba1107	0.09085279
27	0x3e1d9f9e	0.1539292
28	0xba08d3cf	-0.000521955
29	0x3bc7d020	0.0060978085
30	0x3b93a4ba	0.004505721
31	0xbc0362b2	-0.008019136
32	0x3bee2135	0.007267142
33	0x3c67dad3	0.014151293
34	0xbd60c62e	-0.0548765
35	0xbea08e97	-0.31358787
36	0xbe0e7129	-0.13910355
37	0xbe8afaaa	-0.27144367
38	0xbdfa0f37	-0.12209933
39	0xbe87c9c1	-0.26521114
40	0x3e4715b4	0.19441873
41	0x39c7f9a7	0.00038142243
42	0xbadba663	-0.0016757961
43	0x3ad0e00f	0.0015935915
44	0xbb2e863b	-0.00266303
45	0xbb7350fa	-0.0037127123
46	0x3b674a52	0.00352921
47	0xbd8aa97b	-0.06770607
48	0xbe1bcd08	-0.15214932
49	0x3e83059f	0.25590226
50	0x3e8c0aa4	0.27351868
51	0xbe7c0b76	-0.24613747
52	0x3dd89ed3	0.10577168
53	0x3e503b75	0.20335181
54	0xb9bc2bed	-0.00035890882
55	0xbace5002	-0.0015740397
56	0x3b691776	0.0035566962
57	0xbb3aff84	-0.0028533647
58	0xbb42d204	-0.002972723
59	0x3b98238a	0.0046429085
60	0x3b8b3e9b	0.0042494065
61	0x3ebc72a0	0.36806202
62	0xbe98c8ef	-0.298408
63	0x3e77b852	0.24191406
64	0x3d83deee	0.06439005
65	0xbe27ee5f	-0.16399525
66	0x3da349a5	0.07973031
67	0x3874e864	5.8390564e-05
68	0xbc03225b	-0.008003796
69	0xbb85f92a	-0.0040885406
70	0x3b9c237f	0.0047649737
71	0x3ab5a02e	0.0013856941
72	0xbc3e3907	-0.011610276
73	0x3d7369c7	0.05942705
74	0xbe911a54	-0.283404
75	0xbdb82d12	-0.089929715
76	0xbe06bc91	-0.1315787
77	0x3f05202f	0.52002233
78	0x3e80a377	0.25124714
79	0xbeb12ba3	-0.34603605
80	0x3b519983	0.003198237
81	0xbc019f82	-0.007911565
82	0x3b542dc9	0.0032375923
83	0x3bd68b29	0.006547351
84	0xbc022f05	-0.007945781
85	0xbb673b76	-0.0035283244
86	0xbd6f7b85	-0.058467407
87	0x3ddcd919	0.107835956
88	0xbd9f2ed1	-0.077726014
89	0xbd35a970	-0.04435104
90	0x3ddf8c15	0.109153904
91	0x3e3fd773	0.18734531
92	0x3d7f62e1	0.062350158
93	0xbbe9876e	-0.00712674
94	0x3bf3e7a8	0.007443387
95	0xbb2f82fb	-0.0026780951
96	0xba89a970	-0.0010502767
97	0x3b7e0c5e	0.0038764696
98	0x3b2d41f9	0.0026437028
99	0xbd3a1826	-0.045433186
100	0x3de71e69	0.11285097
101	0xbe8278e4	-0.25482857
102	0xbeae8128	-0.34082913
103	0x3dc2a265	0.095036305
104	0x3e7baeed	0.24578448
105	0xbe82ed5c	-0.25571716
106	0xbc6260ee	-0.013817055
107	0x3b9e76cc	0.004835939
108	0x3b27bcdd	0.002559475
109	0x3b0b0738	0.002121402
110	0x3c050b76	0.008120408
111	0xbb50c0a7	-0.003185311
112	0xbd87469e	-0.06605266
113	0x3de8b9bb	0.1136355
114	0xbe6cf4ce	-0.2314026
115	0x3df0ad0c	0.11751756
116	0x3d35111b	0.044205766
117	0x3da432a9	0.08017475
118	0x3e75fe78	0.24022853
119	0x3a9a71e6	0.0011783212
120	0x3b995b8d	0.004680103
121	0x3abfdd07	0.0014638015
122	0x3a6ea23c	0.00091031543
123	0x3baff5e1	0.005369887
124	0x3b697204	0.0035620937
125	0xbd9eedb9	-0.07760186
126	0x3eb696e4	0.35661995
127	0x3ea0b34f	0.31386802
128	0xbe8d9180	-0.2765007
129	0xbdf5741f	-0.11985039
130	0x3e2f57f3	0.17123394
131	0x3e26f1e7	0.16303216
132	0x3b498539	0.0030749573
133	0xba1638cf	-0.0005730511
134	0x3741c54f	1.1549636e-05
135	0x3a3c6bb3	0.00071876793
136	0xbb675096	-0.0035295836
137	0xbb8b6f3a	-0.0042552026
138	0x3cb651e2	0.022255842
139	0x3ee91554	0.45524085
140	0xbe695fe6	-0.22790489
141	0xbe96c858	-0.29449725
142	0xbe2a2c1e	-0.16618392
143	0x38baef53	8.913749e-05
144	0x3e74df27	0.23913251
145	0x3a43c8e2	0.00074685935
146	0x3c1ebf8d	0.009689224
147	0xba055d95	-0.0005087492
148	0xbb02ad7d	-0.0019939833
149	0x3ba0928c	0.0049002822
150	0x3b661883	0.0035109825
151	0xbdf40ece	-0.11916886
152	0x3ec2856b	0.37992415
153	0x3ec3a84f	0.38214347
154	0xbd9121c8	-0.070865214
155	0xbe183553	-0.14864092
156	0xbe7a3972	-0.24435976
157	0x3ddb55cc	0.10709724
158	0x3b67ce41	0.003537074
159	0xbb71d645	-0.0036901396
160	0xba6d649b	-0.0009055824
161	0x3b840d0c	0.0040298756
162	0xba37de72	-0.0007014043
163	0xbbab08a2	-0.005219535
164	0xba1a3758	-0.00058828807
165	0x3ef53ba1	0.47897056
166	0xbe8b66ed	-0.27226964
167	0x3cae82b8	0.021302566
168	0x3b8dd558	0.004328411
169	0x3e5a03f5	0.21290572
170	0x3e57d4d8	0.21077287
171	0xbc0d94bc	-0.008641418
172	0x3bd03ba3	0.0063547655
173	0xbb5bcc91	-0.003353868
174	0x3bd80c80	0.006593287
175	0x3aeb299f	0.0017941481
176	0x3afc17fc	0.0019233222
177	0xbd966db1	-0.07345141
178	0xbf0a99de	-0.5414103
179	0xbe0c89fa	-0.13724509
180	0xbe12ce93	-0.14336614
181	0x3e015159	0.12628688
182	0xbdf91284	-0.12161735
183	0x3d9aa523	0.075510286
184	0x3b25bcec	0.0025289608
185	0xbaf56e7b	-0.0018724942
186	0x39607747	0.00021406739
187	0x39c1b4af	0.00036946448
188	0x3a962a80	0.0011456758
189	0xbaa7e8b8	-0.0012810444
190	0x3d7512db	0.059832435
191	0xbd9c19af	-0.07622086
192	0x3d4fdfc3	0.050750505
193	0x3e95eb3d	0.29281035
194	0xbe0d2ae1	-0.13785888
195	0x3e2995e0	0.16561079
196	0xbee06cb5	-0.43832937
197	0xbbb1e797	-0.005429219
198	0xbc0199cb	-0.007910202
199	0x3b155f99	0.0022792576
200	0xba6d22bd	-0.0009046009
201	0xbbee32f7	-0.007269259
202	0xbb722269	-0.003694678
203	0x3dbf5c3f	0.093437664
204	0xbc350f62	-0.011051031
205	0x3d53d864	0.051720038
206	0xbccc671b	-0.024951508
207	0xbce3da01	-0.027813913
208	0xbe808604	-0.25102246
209	0x3d93a905	0.07209972
210	0x3a50219d	0.0007939579
211	0xbb24e19e	-0.0025158892
212	0xb9af5965	-0.00033445205
213	0x3bbeff4b	0.005828773
214	0xba18c592	-0.000582778
215	0xbc1d2f7c	-0.009593841
216	0x3d29080c	0.04126744
217	0xbe05e035	-0.1307381
218	0xbec6a9a8	-0.38801312
219	0x3eaadf04	0.33373272
220	0xbe535ae0	-0.20640135
221	0xbe51aaf5	-0.20475371
222	0x3e217b87	0.15769778
223	0xb8a7c824	-8.00046e-05
224	0xbb9b412c	-0.0047379937
225	0x3b39a411	0.002832655
226	0xbb03d01e	-0.0020113061
227	0xbb88063c	-0.004151134
228	0xbbd5087c	-0.0065012556
229	0x3aea16d9	0.0017859592
230	0xbe420c43	-0.1894999
231	0xbee763e0	-0.45193386
232	0xbce46771	-0.027881356
233	0xbe857c09	-0.26071194
234	0x3d7313dd	0.059345115
235	0x3e5e5f43	0.21716027
236	0xbb8986aa	-0.0041969614
237	0x3b781992	0.0037857038
238	0xba975a6c	-0.0011547334
239	0xbb3a8e53	-0.002846618
240	0x3b54a95f	0.0032449586
241	0x3bc505b4	0.0060126428
242	0xbd995151	-0.07486213
243	0x3e5b7666	0.21431884
244	0xbe8a9225	-0.27064624
245	0x3ededadf	0.4352636
246	0xbe7de195	-0.24793084
247	0xbe8822ee	-0.2658915
248	0x3e6be6d5	0.23037274
249	0x3c16ad6b	0.0091966195
250	0x3b5cf1e1	0.0033713507
251	0xbb04b92f	-0.002025198
252	0x3b5ce26a	0.003370429
253	0xbbb0bbea	-0.005393495
254	0xba14afaa	-0.0005671928
255	0xbd993837	-0.07481425

fc1.bias f4 [128]
0	0x3e08a1be	0.1334295
1	0x3d837c15	0.06420151
2	0x3dd51f16	0.1040632
3	0x3eb07294	0.34462416
4	0x3eb92022	0.36157328
5	0xbdd5fda7	-0.10448771
6	0xbdf3f04a	-0.11911066
7	0x3eabaf15	0.33532014
8	0x3e589b69	0.21153034
9	0x3e9eff6e	0.31054252
10	0x3de288da	0.110612586
11	0x3ee8ac5c	0.45444
12	0x3df456bb	0.11930605
13	0x3e80585b	0.2506741
14	0x3f110172	0.5664283
15	0x3e3a6ae5	0.1820484
16	0xbdf98ba0	-0.121848345
17	0x3d99c41e	0.075081095
18	0x3dc2011f	0.0947287
19	0x3ddf80ad	0.10913215
20	0x3e832617	0.25614998
21	0x3ea4535d	0.3209485
22	0xbe1a0c68	-0.15043795
23	0x3eb5585a	0.3541897
24	0x3d093b1e	0.033503644
25	0x3dea2acc	0.11433944
26	0x3f05d3c7	0.5227627
27	0x3db23927	0.08702307
28	0x3f00387d	0.50086194
29	0x3ec96fa9	0.39343002
30	0x3eaa2b08	0.33235955
31	0x3ec9b463	0.39395437
32	0x3e239ab1	0.15976979
33	0x3ebb3262	0.36561877
34	0x3e318871	0.17337205
35	0x3cc1be19	0.023650216
36	0x3e26013f	0.16211413
37	0x3d907c32	0.070549384
38	0xbddaedf7	-0.106899194
39	0x3ec511f3	0.38490257
40	0xbcf7726d	-0.03020593
41	0x3e71a9b0	0.23599887
42	0x3e577a47	0.21042739
43	0x3e6f174b	0.2334873
44	0x3ec04fbd	0.37560835
45	0x3d90bbc7	0.07067066
46	0xbe806e6e	-0.2508425
47	0x3eae3f6c	0.34032762
48	0x3e97085c	0.29498565
49	0x3ee796e5	0.4523231
50	0x3eb50771	0.3535724
51	0x3e8f24e8	0.27957845
52	0x3e805550	0.25065088
53	0x3dccf5a0	0.10007787
54	0x3eae98be	0.34100908
55	0x3ea68d71	0.32529786
56	0x3d985f2c	0.074400276
57	0x3e503b94	0.20335227
58	0x3ea03f1c	0.3129815
59	0x3e646c15	0.22306855
60	0xbe81dafe	-0.2536239
61	0x3e3ae9e1	0.1825328
62	0xbd9b99a0	-0.07597661
63	0x3ea73afa	0.32662183
64	0x3ed5d673	0.41765174
65	0x3e433744	0.19064051
66	0xbd0a358d	-0.033742476
67	0x3ea48d3e	0.3213901
68	0xbdb4dca3	-0.088311456
69	0x3ed89bd3	0.42306384
70	0xbb76c376	-0.0037653125
71	0x3f03a9a4	0.51430726
72	0x3f028491	0.5098353
73	0x3ee06a50	0.4383111
74	0xbecad4f1	-0.39615586
75	0x3c926c6a	0.017873961
76	0x3ecbb2e4	0.3978492
77	0x3dfc6e59	0.12325735
78	0x3e39dd63	0.18150859
79	0xbde65520	-0.11246705
80	0x3e4c4e54	0.19951755
81	0x3e8e4a16	0.27790898
82	0x3e6e2e28	0.23259795
83	0x3e75362e	0.23946449
84	0x3e268d33	0.162648
85	0x3e1ff958	0.15622461
86	0x3e8f0e51	0.2794061
87	0x3e9e7314	0.30947173
88	0x3ef25310	0.47328997
89	0x3eeafa97	0.4589431
90	0x3ecde79b	0.40215763
91	0xbe53c28a	-0.2067968
92	0xbe99521d	-0.2994546
93	0xbe2499ef	-0.16074346
94	0x3ea7b075	0.32751814
95	0x3dba0a3e	0.09083985
96	0x3ea0361c	0.31291282
97	0x3ea0666b	0.3132814
98	0xbc7b0620	-0.0153212845
99	0x3e8f0419	0.27932814
100	0x3dba90ed	0.09109674
101	0x3eadd12b	0.33948645
102	0xbcbfc87e	-0.023411032
103	0x3e2a1ebe	0.1661329
104	0x3eea0403	0.45706186
105	0x3ea96137	0.33081982
106	0x3e915dfd	0.2839202
107	0xbd722ed8	-0.059126705
108	0xbe13df12	-0.14440563
109	0x3df3ca56	0.11903827
110	0x3f240953	0.6407673
111	0x3e6f022d	0.23340674
112	0x3e735ab7	0.23765074
113	0x3e41a705	0.18911369
114	0x3e8f511d	0.27991572
115	0x3e923b20	0.28560734
116	0x3f044da8	0.51680994
117	0x3e5668f5	0.20938475
118	0xbbf3b6f8	-0.007437583
119	0x3e9cd8ab	0.30634055
120	0x3cbbacff	0.02290964
121	0x3eb7114c	0.35755384
122	0x3e7a0163	0.24414591
123	0x3dc3e284	0.09564689
124	0x3e6b3cf6	0.22972474
125	0x3ebaebbb	0.36507973
126	0x3e7d856a	0.24757925
127	0x3eab92f9	0.3351057

fc2.weight f4 [64, 128]
0	0x3dd04c7e	0.1017084
1	0x3d5320bd	0.051544894
2	0x3ad02e16	0.0015882875
3	0x3d8441e9	0.06457884
4	0x3e2f601f	0.17126511
5	0x3dcffec5	0.10156015
6	0xbd9274a0	-0.07151151
7	0x3e2f7967	0.17136155
8	0x3c86dd92	0.016463075
9	0x3dfa6ca3	0.12227752
10	0x3dc06590	0.093943715
11	0x3c9626ab	0.018328985
12	0x3d16ebbe	0.036845915
13	0x3dc31e71	0.095272906
14	0x3e52d098	0.20587385
15	0x3c089474	0.008336175
16	0x3df2c014	0.11853042
17	0x3db47541	0.08811427
18	0x3e0e5eaf	0.13903306
19	0x3dd48954	0.10377756
20	0x3e1e80c1	0.15478803
21	0x3b1f821f	0.0024339033
22	0xbd8adb16	-0.067800686
23	0x3d7bbf5f	0.061461803
24	0x3d2f999e	0.04287111
25	0x3e22e7b2	0.15908697
26	0x3dd8af35	0.10580293
27	0x3dfa5b48	0.12224442
28	0x3dabd229	0.08389694
29	0x3df34b13	0.11879554
30	0x3cdf7cc9	0.027281182
31	0x3e49d681	0.19710733
32	0x3be394a2	0.0069452086
33	0x3e2c483b	0.16824429
34	0x3dc58ad8	0.09645623
35	0x3e124bf2	0.14286783
36	0x3e0c167d	0.13680454
37	0xbd5594a5	-0.05214371
38	0x3db8c82a	0.09022553
39	0x3e21d315	0.15803178
40	0x3de4d625	0.11173657
41	0x3dffd045	0.12490896
42	0x3d0bd51a	0.034138776
43	0x3d91d07f	0.071198456
44	0x3dccda4d	0.10002575
45	0x3dcd423a	0.10022397
46	0x3c860869	0.016361432
47	0x3c8d6818	0.01726155
48	0x3d56ffc8	0.052490026
49	0x3dbd2b0f	0.092367284
50	0x3e1dd9ec	0.15415162
51	0x3cd95b52	0.026532803
52	0x3dd9a038	0.106262624
53	0x3dc5ef72	0.09664811
54	0x3dfce4f1	0.123483546
55	0x3cfec276	0.031098586
56	0x3cf8d112	0.03037313
57	0x3e37715e	0.1791434
58	0x3e314f8a	0.17315498
59	0x3db754d0	0.089517236
60	0x3d642d96	0.055707537
61	0x3e2e4da7	0.1702181
62	0xbcbfe6f6	-0.02342556
63	0x3d881682	0.06644918
64	0x3df0acbe	0.11751698
65	0x3e8c4fc1	0.27404597
66	0x3d836e70	0.06417549
67	0x3c396e39	0.011317783
68	0xbcbe0a0d	-0.023198152
69	0x3df17d10	0.11791432
70	0x3b9f24ab	0.004856666
71	0x3d674007	0.056457546
72	0x3decbf00	0.11559868
73	0x3e073971	0.13205506
74	0x3e1de51e	0.15419433
75	0xbcdc6673	-0.02690432
76	0x3d498442	0.049198397
77	0x3dac0d06	0.084009215
78	0x3d743fe2	0.059631236
79	0x3ce9cd9e	0.028540429
80	0x3de52ece	0.11190568
81	0x3d379197	0.04481658
82	0xbd0b1737	-0.033957686
83	0x3e1b86f6	0.15188202
84	0x3d63bdb7	0.055600848
85	0x3c9c689f	0.019092856
86	0x3da511b1	0.08060015
87	0x3dd59247	0.10428291
88	0x3d4c8ad4	0.049937084
89	0x3e0fdf6d	0.14050074
90	0x3d91a66a	0.07111819
91	0x3c9ccdde	0.019141134
92	0x3dc98972	0.09840669
93	0xbe983a70	-0.29732084
94	0x3d85febc	0.06542727
95	0x3d760718	0.06006536
96	0x3dee8094	0.11645618
97	0x3dfa51b5	0.12222616
98	0x3dc173e5	0.09445933
99	0x3d1374de	0.036000125
100	0x3deb0b49	0.11476762
101	0x3be06e97	0.006849121
102	0x3d7dc498	0.061955065
103	0x3d087efa	0.03332422
104	0x3d80b6e1	0.062848814
105	0x3dca7ef9	0.09887499
106	0x3e3856eb	0.18001907
107	0x3df93b1b	0.121694766
108	0x3ccc25d2	0.024920378
109	0x3cdf0fb5	0.02722917
110	0x3e34d93c	0.17660993
111	0x3d70a9c5	0.058755655
112	0x3dd3b7e0	0.10337806
113	0x3bad7e6c	0.0052946117
114	0x3d5e8bfb	0.054332715
115	0x3d11272d	0.03543775
116	0x3d8ace4b	0.067776285
117	0x3d9df9d7	0.07713669
118	0x3dc8339f	0.09775471
119	0x3c20de82	0.009818675
120	0x3c9f37c4	0.01943577
121	0x3c4ebcd8	0.012618266
122	0x3d22acd8	0.039715618
123	0x3ce6e71a	0.02818637
124	0x3de03b7b	0.10948845
125	0x3e28c5a9	0.16481651
126	0x3e027e6b	0.12743537
127	0x3db09c4e	0.08623563
128	0xbd7243a5	-0.059146542
129	0x3ebc9407	0.36831686
130	0xbe220d29	-0.15825333
131	0xbd6aa72e	-0.05728834
132	0xbd1817e6	-0.037132166
133	0xbe09289e	-0.133944
134	0xbe221d81	-0.15831567
135	0xbe9eb44a	-0.30996925
136	0xbe16d37a	-0.1472911
137	0x3df1a2f0	0.11798656
138	0xbdc8abcc	-0.09798393
139	0x3ea8b34e	0.329493
140	0x3f102e88	0.56321
141	0xbd16ac83	-0.036785614
142	0x3df3ff38	0.119139135
143	0x3e623d8d	0.22093792
144	0x3d911bf4	0.0708541
145	0xbdb8ada4	-0.09017494
146	0xbe241284	-0.16022688
147	0xbdd90667	-0.10596924
148	0xbe1678f9	-0.14694585
149	0x3d8e11b2	0.06936969
150	0xbfac9b74	-1.348494
151	0x3e6d82ac	0.23194379
152	0xbe0f7ffc	-0.14013666
153	0xbe4b4f0b	-0.19854371
154	0x3e797b7a	0.24363509
155	0xbebd7c38	-0.37008834
156	0xbd270513	-0.040776324
157	0x3d0e9a2c	0.034815
158	0xbe3e8228	-0.18604338
159	0xbe3be026	-0.18347225
160	0xbc0bdd6d	-0.008536679
161	0x3cbfd3ef	0.023416488
162	0xbde3253d	-0.11091087
163	0x3e228302	0.15870288
164	0xbe0152c6	-0.12629232
165	0x3e0c5b8a	0.13706794
166	0xbd39d2d5	-0.04536708
167	0xbda846f5	-0.08216659
168	0xbf651ca0	-0.89496803
169	0x3cd0070a	0.025393981
170	0xbd7d0644	-0.061773553
171	0x3bb63a6c	0.0055611636
172	0x3d11f29c	0.03563176
173	0x3e8fa2c0	0.28053856
174	0xbdc4bc91	-0.09606279
175	0x3dbd3d0f	0.09240162
176	0x3d3ee4a8	0.046604782
177	0x3ed57555	0.4169108
178	0xbe4cffc2	-0.20019439
179	0x3cd0ad36	0.025473218
180	0x3db6adf6	0.08919899
181	0xbdb48e3e	-0.08816193
182	0xbdd30777	-0.10304158
183	0x3d281b0a	0.04104141
184	0xbda82571	-0.082102664
185	0xbc2ff046	-0.010738438
186	0xbdfcc319	-0.123418994
187	0xbd552803	-0.05204011
188	0xbe839cf8	-0.25705695
189	0x3d803cbc	0.06261584
190	0x3db43091	0.08798326
191	0xbe03e7e6	-0.12881431
192	0xbb986f7d	-0.0046519623
193	0x3c8517b2	0.01624665
194	0x3d6e6c0f	0.05820852
195	0xbe53757d	-0.20650287
196	0x3d54633c	0.05185245
197	0x3bb88983	0.005631627
198	0x3e8c3d89	0.27390698
199	0x3d8d3896	0.068955585
200	0xbdceef62	-0.101042524
201	0xbd77108a	-0.060318507
202	0xbda4241d	-0.080147006
203	0xbd617303	-0.055041324
204	0x3da94ce3	0.08266618
205	0xbcb75edc	-0.0223841
206	0x3c643771	0.013929234
207	0xbdb73182	-0.0894499
208	0xbd919163	-0.071078084
209	0x3e891664	0.26774895
210	0xbebae564	-0.36503136
211	0x3dc5d28f	0.096593015
212	0xbd56dc81	-0.052456383
213	0xbe0b1fa9	-0.13586296
214	0x3ee3d661	0.44499496
215	0xbe35dfd5	-0.17761166
216	0xbedcd901	-0.4313431
217	0x3e9b5ce2	0.303443
218	0x3da5949f	0.08084988
219	0x3beb0f78	0.007173475
220	0xbe3665da	-0.17812291
221	0xbc86f45d	-0.016473943
222	0x3bed3c28	0.007239837
223	0xbef11fe6	-0.4709465
224	0xbe18feaa	-0.14940897
225	0xbec68555	-0.387736
226	0x3cf6e010	0.030136138
227	0xbd953380	-0.072852135
228	0xbe81a8a3	-0.25323972
229	0x3dbe2d2b	0.09285959
230	0xbd9a134c	-0.07523212
231	0xbc820fc2	-0.015876655
232	0xbcf1a7f9	-0.02949904
233	0x3ea153cc	0.31509244
234	0x3dea549a	0.11441918
235	0xbdc7f3d4	-0.097633034
236	0x3b820841	0.003968269
237	0xbe1a5348	-0.15070832
238	0x3e432dc3	0.19060425
239	0xbdee0ef3	-0.11623945
240	0x3d95f0cf	0.07321321
241	0xbef525bf	-0.4788036
242	0x3c8c3919	0.01711707
243	0x3e2e9647	0.17049514
244	0x3cb9588d	0.022625232
245	0xbd6b9f76	-0.05752512
246	0xbf387b0a	-0.7206274
247	0x3e1ae1ea	0.15125242
248	0xbdaa2790	-0.08308327
249	0x3ce0765f	0.027400194
250	0x3e233a7d	0.1594028
251	0xbe236321	-0.15955783
252	0x3db43a6e	0.08800207
253	0xbd539bbd	-0.051662195
254	0x3d32e42e	0.04367464
255	0xbd8f3c71	-0.0699395

fc2.bias f4 [64]
0	0x3e89c5cd	0.26908723
1	0x3dc0e1c7	0.094180636
2	0x3e44509b	0.19171374
3	0x3e78ea77	0.24308191
4	0xbe886c36	-0.26645058
5	0xbe877e81	-0.26463702
6	0x3e6e97c0	0.23300076
7	0x3e15bdd0	0.14623189
8	0x3de5ab6c	0.11214337
9	0x3e586c78	0.21135128
10	0xbeb6e447	-0.35721037
11	0x3e9dbd77	0.30808613
12	0x3d8400ca	0.06445463
13	0x3b08e728	0.0020889733
14	0xbdc8aa1b	-0.0979807
15	0x3e3640cc	0.17798156
16	0x3e86c3e7	0.26321337
17	0x3e9363e9	0.28787163
18	0x3e91de6e	0.28490013
19	0xbe75f11b	-0.24017756
20	0x3e9decdc	0.30844772
21	0x3e869593	0.2628599
22	0xbea5e6bc	-0.324026
23	0x3e4a15f5	0.19734938
24	0x3d4d153b	0.050069075
25	0x3e99b623	0.30021772
26	0xbd99f35b	-0.075171195
27	0x3e40507d	0.18780704
28	0xbe25c720	-0.16189241
29	0x3e6d8c03	0.23197941
30	0xbe4ce54e	-0.20009348
31	0x3e1154f5	0.14192565
32	0x3e8d4458	0.27591205
33	0xbeb4f130	-0.3534026
34	0x3d8484ab	0.06470617
35	0x3c1c4d3c	0.0095398985
36	0xbe614261	-0.21997978
37	0xbf117e93	-0.5683376
38	0x3e376778	0.17910564
39	0x3e59f3e7	0.21284448
40	0x3e6d8080	0.2319355
41	0x3e6d9b18	0.23203695
42	0x3ea0d135	0.31409612
43	0xbe30fea5	-0.17284639
44	0xbe404e02	-0.18779758
45	0x3e94f2dc	0.29091537
46	0x3e7c6220	0.24646807
47	0x3e65f4c3	0.2245665
48	0x3d7388f7	0.05945679
49	0x3e651302	0.22370532
50	0x3e8fb76d	0.2806963
51	0x3e8e428f	0.27785155
52	0x3e747b4e	0.23875162
53	0xbe9d3439	-0.30703905
54	0x3e94da6e	0.290729
55	0x3e427574	0.18990117
56	0xbdfc39bf	-0.12315702
57	0xbe9af191	-0.30262426
58	0x3e447d46	0.19188413
59	0xbca37e7e	-0.019957777
60	0x3e2bc8a9	0.16775765
61	0x3e31ac3b	0.17350857
62	0xbe0b6db7	-0.13616072
63	0xbe0ccad2	-0.13749245

fc3.weight f4 [1, 64]
0	0x3e264635	0.1623772
1	0xbf05ca74	-0.52262044
2	0x3e0a7aae	0.13523361
3	0x3de28a77	0.11061566
4	0xbde3ddd2	-0.11126293
5	0xbe9b2c53	-0.30307254
6	0x3dc42510	0.095773816
7	0x3e33cda1	0.1755891
8	0xbf6342d6	-0.8877386
9	0x3db01f86	0.085997626
10	0xbe9feac0	-0.31233788
11	0x3e41bc57	0.18919502
12	0xbecf25cf	-0.40458533
13	0xbe1a81c1	-0.1508856
14	0xbeac2d7a	-0.33628446
15	0x3e06d301	0.13166429
16	0x3e0b6c73	0.13615589
17	0x3e042b81	0.1290722
18	0x3ddc3117	0.10751551
19	0xbefb236e	-0.49050468
20	0x3e2c46d3	0.16823892
21	0x3e0503d1	0.12989737
22	0xbea0b815	-0.31390443
23	0x3e49701c	0.19671673
24	0xbdb03fa5	-0.08605889
25	0x3de9cc68	0.114159405
26	0xbc03e6fb	-0.0080506755
27	0x3e439465	0.19099577
28	0xbf2b0e83	-0.6681902
29	0x3e2a022e	0.16602394
30	0xbed5ae32	-0.41734463
31	0x3e3508e9	0.1767918
32	0x3e056244	0.13025767
33	0xbec0e85b	-0.37677273
34	0xbb61d78d	-0.0034460754
35	0xbd1ff5f3	-0.039052915
36	0xbe4e357d	-0.20137592
37	0xbf8cd567	-1.1002625
38	0x3e2b5977	0.16733347
39	0x3e5979c2	0.21237853
40	0x3e02318d	0.12714215
41	0x3e585fd1	0.21130301
42	0x3df1fcc8	0.11815792
43	0xbe96e8d9	-0.29474524
44	0xbfa1f3dd	-1.2652546
45	0x3e29096d	0.16507502
46	0x3def3123	0.11679294
47	0x3e1f12fc	0.15534586
48	0xbf7c66c8	-0.9859433
49	0x3e046f45	0.12933071
50	0x3e00f0e2	0.1259189
51	0x3e1d2ccf	0.15349124
52	0x3de90332	0.113775626
53	0xbed47b31	-0.41500238
54	0x3e478caf	0.1948726
55	0x3e5d3a91	0.21604373
56	0xbea610af	-0.32434604
57	0xbebd5248	-0.36976838
58	0x3deb0713	0.11475959
59	0xbeca8dec	-0.39561403
60	0x3e406e2f	0.18792032
61	0x3e13c5c5	0.14430912
62	0xbe1ee9e0	-0.15518904
63	0xbec74158	-0.3891704
