new_weather_model.pth (torch, 43180 bytes, 5 tensors)

fc1.weight f4 [128, 13]
0.056918856 0.17552707 0.09833039 0.025330734 0.039587095 0.059291255 -0.08986826 -0.08275094
0.30146933 -0.36179307 0.19024354 0.373212 0.017860785 0.02223437 0.17341223 -0.003082116
0.0014765386 -0.002356584 0.003787502 0.0010982984 -0.000893282 -0.1672801 -0.23806792 -0.056109227
-0.009018784 -0.16195174 -0.11494156 -0.3395486 -0.06487602 0.23345299 -0.016205234 0.12493483
0.047513917 0.019965163 -0.4735064 -0.28006122 -0.34326026 0.12603174 0.31109676 -0.43269697
0.2116503 -0.00014783205 0.0012195703 -1.4809829e-05 -0.001351908 0.0013233698 0.00027776044 -0.11205632
0.47814795 -0.30539668 0.18556064 0.002844698 0.19710673 0.35590997 -0.0067797513 0.063649625
0.09635935 0.07092188 0.0061119525 0.025001599 -0.23283848 -0.0030013334 0.30097994 -0.10044052
0.45857927 0.05309158 0.11399633 -0.015449111 0.0033423363 -0.03787579 -0.000120863566 -0.061106097
0.017884154 0.060752477 -0.25503427 0.19698271 0.3089233 0.06420504 0.1744026 0.047889907
-0.0038964448 -0.0059355604 -0.015050787 -0.050925326 -0.013807424 0.048674494 0.14678025 -0.40420622
-0.5652113 -0.07313925 0.15769516 -0.40176395 0.039759714 -0.0026863148 0.028620522 -0.009358746
-0.018766075 -0.011138065 0.034740854 0.17897898 0.026796818 -0.23428838 -0.5171324 -0.23090996
-0.22558446 0.18651596 -0.0002154547 0.00040027767 0.00014219528 -0.0025935392 -0.003219196 -0.00066406134
-0.10780341 -0.12841704 0.055727437 -0.20752744 0.32577437 -0.17543034 0.026500707 0.052126154
0.08665293 -0.025435274 0.12621717 -0.097029924 -0.15634589 0.24527739 -0.058308728 0.16034377
-0.18322565 0.09620062 -0.2769487 0.07852028 0.0011345285 -0.0025749742 0.0011658866 0.010728346
-0.0015095773 -0.014957919 0.020746132 -0.12144994 -0.36079088 -0.18340464 0.31658724 0.19219154
0.23670574 0.001408019 0.014949385 -0.00078490743 0.0018667706 -1.5658954e-05 0.0051173423 -0.11037619
0.08410372 -0.14874841 0.57346153 -0.051193323 -0.27659407 0.17122255 0.019138994 -0.004101334
0.0037455999 0.08683748 -0.010557494 -0.111206345 -0.053002395 -0.051574018 0.51947606 -0.022109088
-0.23947054 -0.08704675 0.24996701 9.746891e-05 0.00508351 0.0030102285 -0.0018855175 -0.0049789078
0.0027075794 -0.09755665 0.31913733 -0.42667916 -0.28063184 0.3784813 -0.29553273 0.18776332
0.0051412373 -0.003827072 0.0017831941 -0.0075411308 -0.005186762 -0.0058851726 -0.017454846 -0.29493883
0.13188891 -0.5559167 -0.2848813 -0.51443446 0.25524485 -0.0029082198 0.0064009908 0.0043524085
0.0036441896 4.7484114e-05 0.005071981 -0.08144511 0.6311955 0.06806405 0.045248333 0.15736982
-0.2118387 0.05099834 0.0015759256 -0.0005363758 0.004772729 0.009407917 -0.002506159 -0.017611349
0.011983507 -0.17542288 -0.2529831 -0.0826172 -0.11722741 0.026319971 0.18758662 -0.009261957
0.030431423 0.043551352 0.04074597 2.0731302e-05 -0.017230717 0.18505603 0.101462044 0.28001785
0.04583471 0.2493753 -0.23936273 0.13897012 0.0034413054 0.0035578576 -0.00039287668 -0.006257453
-0.0010719755 0.010498296 -0.0018812667 -0.39308393 0.1628718 0.5168546 -0.27103034 -0.5094307
0.30260235 -0.042254418 -0.027671115 -0.067657694 0.002029578 -0.0106061 -0.1033961 0.098307595
00000000: bf23 693d 5ebd 333e 7261 c93d 6682 cf3c
00000010: 1426 223d 63db 723d da0c b8bd 5379 a9bd
00000020: 305a 9a3e f13c b9be 34cf 423e a515 bf3e
00000030: c850 923c da24 b63c fa92 313e 53fd 49bb
00000040: 6a88 c13a eb70 1abb bd37 783b c7f4 8f3a
00000050: 242b 6aba 794b 2bbe 14c8 73be cad2 65bd
00000060: 86c3 13bc add6 25be 7b66 ebbd 50d9 adbe
00000070: b8dd 84bd 4d0e 6f3e d7c0 84bc d5dd ff3d
00000080: f49d 423d fb8d a33c 6e6f f2be 2f64 8fbe
00000090: cfbf afbe 770e 013e 1348 9f3e 758a ddbe
000000a0: dbba 583e 5d03 1bb9 fdd9 9f3a bb77 78b7
000000b0: 8132 b1ba ec74 ad3a 60a0 9139 c97d e5bd
000000c0: cfcf f43e f45c 9cbe 9c03 3e3e 1d6e 3a3b
000000d0: 59d6 493e d539 b63e ad28 debb bc5a 823d
000000e0: 0d58 c53d 7e3f 913d c646 c83b 27d0 cc3c
000000f0: 366d 6ebe 05b2 44bb 0b1a 9a3e c2b3 cdbd
00000100: e7ca ea3e 8e76 593d e876 e93d 451e 7dbc
00000110: 190b 5b3b a523 1bbd 2278 fdb8 634a 7abd
00000120: ca81 923c 97d7 783d da93 82be d6b5 493e
00000130: 322b 9e3e ef7d 833d 9896 323e 3528 443d
00000140: 7f5b 7fbb 177f c2bb 9397 76bc 1397 50bd
00000150: 8938 62bc e85e 473d 904d 163e 1ef4 cebe
00000160: b0b1 10bf 08ca 95bd d77a 213e 01b4 cdbe
00000170: 15db 223d e20c 30bb 9675 ea3c 6d55 19bc
00000180: 50bb 99bc 6e7c 36bc 6d4c 0e3d 4446 373e
00000190: 0085 db3c 4be9 6fbe ca62 04bf a973 6cbe
000001a0: 9dff 66be 0afe 3e3e aeeb 61b9 5cdc d139
000001b0: 411a 1539 5ef8 29bb 26f9 52bb 6714 2eba
000001c0: 09c8 dcbd c27f 03be 7442 643d 1382 54be
000001d0: e6cb a63e 03a4 33be 0318 d93c 3c82 553d
000001e0: 1777 b13d a35d d0bc 133f 013e a0b7 c6bd
000001f0: 2319 20be ff29 7b3e 22d5 6ebd 2831 243e
00000200: 819f 3bbe d504 c53d 38cc 8dbe 3ecf a03d
00000210: 76b4 943a e6c0 28bb aad0 983a f2c5 2f3c
00000220: 02dd c5ba 0f12 75bc cbf3 a93c bfba f8bd
00000230: 95b9 b8be 6dce 3bbe b917 a23e dccd 443e
00000240: fd62 723e 478d b83a 44ee 743c 3fc2 4dba
00000250: 6dae f43a 595b 83b7 61af a73b e90c e2bd
00000260: 923e ac3d 8151 18be 60ce 123f 17b0 51bd
00000270: bd9d 8dbe f754 2f3e 61c9 9c3c 7c64 86bb
00000280: bd78 753b d9d7 b13d 57f9 2cbc 27c0 e3bd
00000290: 0a19 59bd 473f 53bd 62fc 043f 1e1e b5bc
000002a0: c437 75be 9145 b2bd 5af7 7f3e 3968 cc38
000002b0: 9393 a63b 4147 453b 7823 f7ba 1b26 a3bb
000002c0: a571 313b c8cb c7bd f865 a33e b175 dabe
000002d0: faae 8fbe 4dc8 c13e 1150 97be 0745 403e
000002e0: d377 a83b 9dcf 7abb 11ba e93a 971b f7bb
000002f0: b7f5 a9bb 68d8 c0bb 77fd 8ebc 3902 97be
00000300: e30d 073e 8f50 0ebf f6db 91be fab1 03bf
00000310: 74af 823e d597 3ebb 67bf d13b a69e 8e3b
00000320: 5bd3 6e3b ae29 4738 dc32 a63b b2cc a6bd
00000330: 0796 213f 2a65 8b3d 5156 393d 8e25 213e
00000340: 3fec 58be a3e3 503d 4a8f ce3a 929b 0cba
00000350: 8d64 9c3b aa23 1a3c 5f3e 24bb ad45 90bc
00000360: 7956 443c 0ea2 33be 0087 81be 3533 a9bd
00000370: ed14 f0bd fb9c d73c b516 403e 77bf 17bc
00000380: 524b f93c e762 323d 3fe5 263d 22e8 ad37
00000390: 6f27 8dbc 547f 3d3e 55cb cf3d 805e 8f3e
000003a0: 2dbd 3b3d 3d5c 7f3e 811b 75be 2f4e 0e3e
000003b0: 8687 613b f22a 693b 04fb cdb9 520b cdbb
000003c0: 8781 8cba 0b01 2c3c d694 f6ba 4c42 c9be
000003d0: ddc7 263e 9550 043f 7dc4 8abe 0d6a 02bf
000003e0: b2ee 9a3e f812 2dbd 89ae e2bc 1e90 8abd
000003f0: ab02 053b 35c5 2dbc 56c1 d3bd 7e55 c93d

fc1.bias f4 [128]
0.36753264 0.39088142 -0.26319042 0.017899277 0.020647418 0.26460245 0.23599139 -0.019064223
0.41437677 0.035050523 0.2978546 0.22931767 0.19028533 0.12919347 0.3586653 0.2143667
0.12263759 0.3526961 0.13449453 0.13288198 0.39538246 0.2539243 -0.059997324 -0.03655616
-0.07505749 0.09080666 0.33136266 0.35568273 0.128897 0.18366541 0.2065582 0.3750737
-0.1747738 0.45910192 0.4719335 0.51184785 0.17897135 0.40582666 -0.14259882 -0.024106124
0.07524162 0.051040277 0.39645123 0.16193077 0.27849445 0.41085836 0.16958906 0.037974317
0.27368087 0.14481781 0.45352226 0.6218741 0.5210968 -0.15019539 -0.034274545 0.44772828
0.10798731 0.27729928 -0.20222126 -0.057370737 -0.006248339 0.29946503 -0.15041354 -0.006841846
0.20480119 0.0076820254 0.37880775 0.023464955 0.01001697 0.52153224 0.42869586 0.2821554
-0.18358237 0.1780677 0.23815356 0.11695853 0.0016935619 0.31561655 0.1681254 0.40146467
0.0687914 0.15160283 0.39945382 0.03426712 0.24972297 -0.2940917 0.4647188 0.09182852
0.5406531 -0.19602937 -0.029745126 -0.35434985 0.34515685 -0.165137 -0.2120935 -0.22064337
0.024497924 0.28306156 0.04132154 -0.06274488 0.3994696 0.19917406 0.3095628 0.19364531
0.6844195 0.106112026 0.2609056 0.41975716 0.091185756 0.29736105 -0.23112047 0.22213474
-0.12196387 0.37340355 -0.21642601 -0.031226864 0.008183667 0.11043508 -0.005805541 0.27747
0.015075642 0.2391511 0.38101837 -0.20893635 0.31365052 0.35669738 0.057868972 0.18366976
00000000: 3d2d bc3e 9c21 c83e e5c0 86be 81a1 923c
00000010: c624 a93c f979 873e baa7 713e 932c 9cbc
00000020: 3129 d43e 2391 0f3d 6680 983e 40d2 6a3e
00000030: 28da 423e 4b4b 043e faa2 b73e f282 5b3e
00000040: 6b29 fb3d 9594 b43e efb8 093e 3712 083e
00000050: 926f ca3e 5e02 823e c1bf 75bd e9bb 15bd
00000060: beb7 99bd d8f8 b93d 5ea8 a93e 0c1c b63e
00000070: 93fd 033e c912 3c3e fe83 533e a909 c03e
00000080: e7f7 32be 680f eb3e 45a1 f13e 7608 033f
00000090: 4444 373e 83c8 cf3e 6d05 12be 357a c5bc
000000a0: 4718 9a3d 9c0f 513d a8fb ca3e 2ed1 253e
000000b0: d396 8e3e 075c d23e c1a8 2d3e f58a 1b3d
000000c0: e61f 8c3e 1f4b 143e 1234 e83e 2433 1f3f
000000d0: 9a66 053f d2cc 19be 7763 0cbd a43c e53e
000000e0: 7328 dd3d 2cfa 8d3e 1713 4fbe 94fd 6abd
000000f0: debe ccbb 7b53 993e 0206 1abe 9031 e0bb
00000100: 67b7 513e 80b9 fb3b 17f3 c13e 9439 c03c
00000110: 381e 243c 2383 053f 067e db3e ac76 903e
00000120: 04fd 3bbe 6157 363e 87de 733e f487 ef3d
00000130: 82fa dd3a 7e98 a13e 1129 2c3e c78c cd3e
00000140: 81e2 8c3d c63d 1b3e 3685 cc3e ae5b 0c3d
00000150: 61b7 7f3e 3093 96be 9fef ed3e 9710 bc3d
00000160: 3e68 0a3f ecbb 48be 0dac f3bc 586d b5be
00000170: 66b8 b03e ac19 29be 0a2f 59be 56f0 61be
00000180: dfaf c83c 72ed 903e c640 293d 6380 80bd
00000190: 4887 cc3e 49f4 4b3e 047f 9e3e f54a 463e
000001a0: 1e36 2f3f 4351 d93d 6b95 853e 69ea d63e
000001b0: 99bf ba3d b53f 983e d8aa 6cbe 4a77 633e
000001c0: 32c8 f9bd c02e bf3e c89e 5dbe 7bcf ffbc
000001d0: ca14 063c ca2b e23d 683c bebb 8c10 8e3e
000001e0: d3ff 763c 07e4 743e d714 c33e 69f3 55be
000001f0: cd96 a03e 0aa1 b63e 0408 6d3d ed13 3c3e

fc2.weight f4 [64, 128]
0.10816543 0.10330311 0.04315167 0.07339428 0.117591225 0.018253189 0.009891365 0.14348985
0.018692084 0.019258883 0.062285095 0.081803024 0.12584817 0.16636784 0.07797559 0.026842203
0.040532544 0.011294259 0.10673874 0.016937368 0.0005134741 0.13081633 0.031426985 0.073404334
0.17634533 0.16982163 0.07264489 0.18944016 0.008496532 0.06340319 0.11187869 0.08578059
0.10780558 0.010444816 -0.005601386 0.07144864 0.13031207 -0.008283882 -0.022833942 0.13795687
0.10788518 0.04904156 0.10121594 0.067064494 0.021390585 0.14320391 0.08558653 -0.013926087
0.1089791 0.15209799 0.03925482 0.19391076 0.14660157 0.07183482 -0.011056026 0.021305997
0.019357407 0.13988678 0.114092365 0.11331241 0.07817747 -0.018433763 0.05614432 0.1203583
0.09899438 0.013251024 0.14485309 0.13195917 0.09305879 0.13328703 0.10484425 0.048909888
0.0976981 0.13362992 0.12701644 0.0009940045 0.13890402 0.11308307 0.09388214 0.17178184
0.1429469 0.07687604 0.09787564 0.14228804 0.110793225 -0.00048673767 0.054935135 0.08759804
0.11043747 0.008619926 0.06657068 0.15092874 0.02592417 0.00580469 0.032311603 -0.0814507
-0.0018587832 0.13000105 0.08765989 0.055024352 0.03578213 0.13587983 0.12812395 0.037234154
0.1405183 0.071328774 0.09430093 0.026211066 0.13033788 0.093034364 -0.014938804 0.07520611
0.03678474 0.08962604 0.014596847 0.15688805 0.10377549 0.011862378 0.13415442 0.10141838
0.026038926 0.1653196 0.05041873 0.16108513 0.0748551 0.12279214 0.011941734 0.012305657
0.14378846 -0.006024869 0.015575384 -0.12983893 0.026923984 0.08565803 -0.0072799516 -0.024465824
-0.06431221 0.048230693 -0.000494106 -0.09214859 -0.07949292 0.08715757 0.07968152 -0.18457378
-0.08449565 0.094559565 -0.18929043 -0.06571438 0.13353184 -0.12112022 -0.2535949 -0.03600655
-0.19740859 0.03626865 0.11921861 -0.04154941 0.011918071 -0.07001526 0.09289933 0.018838584
0.078186736 0.11181421 -0.06920482 0.14073119 0.09889546 -0.013855358 -0.043642715 -0.101118855
0.043708347 -0.36972785 0.28376454 -0.25615197 0.032206107 -0.0037320866 -0.03606385 0.057475597
0.20572501 0.021427803 -0.19342671 -0.41968772 0.17924939 -0.030981548 0.08114916 0.046579823
-0.26245463 -0.05219634 0.3989677 -0.07403411 0.024548288 0.066022225 0.22051413 -0.0048562246
-0.31882307 -0.17239426 0.10143513 0.020515654 0.052473456 -0.023218071 -0.08585102 -0.12474668
0.09335403 0.021622036 -0.24106237 -0.093171306 0.19162698 0.009691966 -0.13426624 0.20539851
-0.010656807 0.011047194 0.10092721 -0.1597257 0.03858873 0.036871627 0.028785773 0.036827747
0.07059405 -0.13966088 -0.31496876 -0.16011769 0.06716322 -0.25134057 -0.11431558 -0.013225112
0.021858435 -0.28519377 0.12094445 0.051972136 0.16450197 0.18179758 0.18346354 -0.15263893
0.18357243 -0.18224925 0.03982694 0.06412732 0.006711969 -0.08744991 -0.2700648 -0.23274079
0.018542789 0.16695237 -0.11897843 -0.10596796 -0.009631359 -0.43196166 0.08319275 -0.06958123
0.10559333 0.096323065 0.038836878 0.022072658 -0.3154982 0.057975307 0.56191957 -0.0053549535
00000000: d685 dd3d 9590 d33d cebf 303d be4f 963d
00000010: abd3 f03d b687 953c 640f 223c 01ef 123e
00000020: 2420 993c cec4 9d3c a81e 7f3d 5888 a73d
00000030: 58de 003e 555c 2a3e abb1 9f3d 2ee4 db3c
00000040: 7405 263d 8e0b 393c d799 da3d 3cc0 8a3c
00000050: aa9a 063a b7f4 053e 95b9 003d 0355 963d
00000060: df93 343e b9e5 2d3e d8c6 943d 9afc 413e
00000070: 0a35 0b3c 88d9 813d a820 e53d bcad af3d
00000080: 2cc9 dc3d bc20 2b3c d58b b7bb aa53 923d
00000090: 8770 053e 1fb9 07bc 3f0e bbbc 9144 0d3e
000000a0: e8f2 dc3d cedf 483d 4e4a cf3d 1c59 893d
000000b0: 4f3b af3c 0ca4 123e fe47 af3d 3e2a 64bc
000000c0: 6f30 df3d 93bf 1b3e aac9 203d 8b90 463e
000000d0: b91e 163e 221e 933d 5624 35bc ea89 ae3c
000000e0: 6d93 9e3c 7b3e 0f3e 42a9 e93d 5610 e83d
000000f0: 821b a03d 6702 97bc 96f7 653d 6a7e f63d
00000100: 91bd ca3d d31a 593c 5e54 143e 4e20 073e
00000110: 9b95 be3d 657c 083e 95b8 d63d bc55 483d
00000120: f115 c83d 48d6 083e 9910 023e 4249 823a
00000130: db3c 0e3e 1998 e73d 4845 c03d 94e7 2f3e
00000140: ac60 123e 2f71 9d3d 0673 c83d f5b3 113e
00000150: 8fe7 e23d d330 ffb9 aa03 613d 9a66 b33d
00000160: 0a2d e23d 973a 0d3c 3556 883d 108d 1a3e
00000170: ed5e d43c 4535 be3b 2c59 043d a0cf a6bd
00000180: 6aa2 f3ba ff1e 053e 0787 b33d 3761 613d
00000190: 4890 123d 1524 0b3e ed32 033e d782 183d
000001a0: 07e4 0f3e d214 923d d920 c13d 97b8 d63c
000001b0: 4b77 053e cd88 be3d e3c1 74bc a905 9a3d
000001c0: 98ab 163d db8d b73d 9d27 6f3c 43a7 203e
000001d0: 3e88 d43d 6b5a 423c c75f 093e 71b4 cf3d
000001e0: 964f d53c 8b49 293e df83 4e3d 80f3 243e
000001f0: a14d 993d 727a fb3d 43a7 433c ab9d 493c
00000200: 483d 133e 446c c5bb e52f 7f3c 7ff4 04be
00000210: b08f dc3c 7a6d af3d a98c eebb 8d6c c8bc
00000220: 1fb6 83bd 8c8d 453d e486 01ba 66b8 bcbd
00000230: 2fcd a2bd ab7f b23d 1130 a33d e900 3dbe
00000240: 0e0c adbd 72a8 c13d 5ad5 41be 4395 86bd
00000250: 92bc 083e e10d f8bd 31d7 81be 9b7b 13bd
00000260: 7a25 4abe 708e 143d e328 f43d b72f 2abd
00000270: 0344 433c 2964 8fbd 0142 be3d 6053 9a3c
00000280: 5e20 a03d d9fe e43d 42bb 8dbd d61b 103e
00000290: b489 ca3d 9501 63bc b4c2 32bd 6717 cfbd
000002a0: 8607 333d f84c bdbe 9649 913e 5a26 83be
000002b0: 8dea 033d 0696 74bb b0b7 13bd 886b 6b3d
000002c0: 94a9 523e 5c89 af3c a711 46be 4fe1 d6be
000002d0: 278d 373e 04cd fdbc 8831 a63d 7cca 3e3d
000002e0: 7460 86be d4cb 55bd 7f45 cc3e 329f 97bd
000002f0: 7e19 c93c a936 873d 75ce 613e f720 9fbb
00000300: c73c a3be 1f88 30be 39bd cf3d 7210 a83c
00000310: 68ee 563d d333 bebc a9d2 afbd 307b ffbd
00000320: 6630 bf3d b220 b13c 0ed9 76be 99d0 bebd
00000330: dd39 443e 0dcb 1e3c 177d 09be fd53 523e
00000340: e399 2ebc 4aff 343c edb2 ce3d 228f 23be
00000350: 370f 1e3d b406 173d 24d0 eb3c b1d8 163d
00000360: 9d93 903d 4303 0fbe 9643 a1be e4f5 23be
00000370: df8c 893d b6af 80be 491e eabd 24ae 58bc
00000380: 7610 b33c eb04 92be b9b1 f73d bce0 543d
00000390: 3473 283e 2529 3a3e dedd 3b3e 614d 1cbe
000003a0: 69fa 3b3e 8c9f 3abe 9321 233d 2f55 833d
000003b0: 14f0 db3b f018 b3bd ef45 8abe 9a53 6ebe
000003c0: 0ce7 973c 90f5 2a3e f7aa f3bd bb05 d9bd
000003d0: d9cc 1dbc 142a ddbe f660 aa3d 9b80 8ebd
000003e0: 5141 d83d 0745 c53d 6b13 1f3d b8d1 b43c
000003f0: fb88 a1be 8477 6d3d f6d9 0f3f 9b78 afbb

fc2.bias f4 [64]
0.12731692 -0.026800675 -1.0976448 0.019582348 0.07428312 0.15841033 -0.39181155 -0.027293636
0.17238437 -0.15614206 0.20815097 0.038701247 0.11953931 0.027221968 0.102915354 0.07661466
-0.03115608 0.00039460277 0.00185742 0.10778819 0.20529099 0.036600538 0.1498415 -0.002337724
-0.072292104 0.115285724 0.19916704 -0.9228588 0.17104113 0.11290703 0.5863731 -0.0526635
0.22707242 0.08242147 -0.017081425 -0.059103224 -0.08556496 0.20320432 0.1042314 0.08403958
0.16202937 -0.060550455 0.087954424 0.11272938 0.12265687 0.1737278 0.21870555 0.21095175
0.19896875 -0.07607599 0.0817207 0.14986889 0.04265799 0.056210436 -0.13872553 0.056909505
-0.086297326 0.20539258 -1.5075644 -0.03522346 0.10990153 0.022901589 0.11024923 -0.020046292
00000000: 5e5f 023e 178d dbbc a07f 8cbf 296b a03c
00000010: c021 983d 5136 223e 869b c8be e796 dfbc
00000020: 8785 303e b4e3 1fbe 8725 553e 3385 1e3d
00000030: 07d1 f43d 9b00 df3c 49c5 d23d 26e8 9c3d
00000040: 093b ffbc b0e2 ce39 ac74 f33a 0ec0 dc3d
00000050: cd37 523e 72ea 153d 0d70 193e 8034 19bb
00000060: e20d 94bd ec1a ec3d 72f2 4b3e 7940 6cbf
00000070: 6825 2f3e cd3b e73d 8c1c 163f afb5 57bd
00000080: ac85 683e 96cc a83d 58ee 8bbc 3916 72bd
00000090: af3c afbd cb14 503e 4677 d53d f11c ac3d
000000a0: 07eb 253e c103 78bd 7321 b43d a9de e63d
000000b0: 8633 fb3d b3e5 313e 59f4 5f3e bc03 583e
000000c0: 77be 4b3e bbcd 9bbd 2f5d a73d 3b77 193e
000000d0: 25ba 2e3d ea3c 663d 110e 0ebe f119 693d
000000e0: a7bc b0bd 6f52 523e dff7 c0bf 7a46 10bd
000000f0: 0e14 e13d 1d9c bb3c 59ca e13d 1f38 a4bc

fc3.weight f4 [1, 64]
0.17866094 -0.5122849 -0.72507215 -0.09924515 0.11263168 0.17282054 -0.5642382 -0.020767659
0.109635115 -0.36196756 0.2005089 -0.041959044 0.17568389 -0.059372794 0.15868257 0.18430504
-0.012623482 -0.051868305 -0.09321008 0.16111693 0.19824035 -0.049480557 0.11104519 -0.07778618
-0.09500926 0.10229531 0.110634685 1.1989313 0.19972667 0.10370776 0.283301 -0.2795827
0.10372093 0.112807505 -0.10628521 -0.096496165 -0.058677312 0.17961642 0.20943564 0.19492517
0.18430758 -0.09186509 0.112645745 0.15146406 0.18805307 0.1327743 0.15457584 0.19625153
0.18590379 -0.102248155 0.17356883 0.13577592 0.2077576 0.18699962 -0.44041285 -0.2650297
-0.021440249 0.2134975 -0.8587318 -0.3325211 0.102692865 -0.051477723 0.18024558 -0.0715915
00000000: e5f2 363e 1a25 03bf 549e 39bf 0b41 cbbd
00000010: 70ab e63d def7 303e ea71 10bf f020 aabc
00000020: 6088 e03d d053 b9be 3552 4d3e 3fdd 2bbd
00000030: 7ae6 333e e330 73bd af7d 223e 76ba 3c3e
00000040: b9d2 4ebc dc73 54bd ede4 bebd d6fb 243e
00000050: 85ff 4a3e 20ac 4abd a96b e33d 5c4e 9fbd
00000060: 3794 c2bd 3480 d13d 7094 e23d 9576 993f
00000070: 2685 4c3e bc64 d43d d40c 913e 7725 8fbe
00000080: a46b d43d 9f07 e73d 0fac d9bd c89f c5bd
00000090: 9f57 70bd 5eed 373e 4c76 563e 779a 473e
000000a0: 20bb 3c3e c423 bcbd d0b2 e63d 6519 1b3e
000000b0: fc90 403e fcf5 073e 2149 1e3e 29f6 483e
000000c0: 905d 3e3e 7b67 d1bd 07bc 313e d808 0b3e
000000d0: 69be 543e d47c 3f3e cb7d e1be f9b1 87be
000000e0: 76a3 afbc 179f 5a3e d9d5 5bbf 3540 aabe
000000f0: a350 d23d 4eda 52bd 4c92 383e 909e 92bd
